models/pg/reinforce/weights.npy (npy, 704 bytes, 1 tensors)

array f8 [6, 12]
-0.03887805700118982 -0.03277276606202708 0.061519706844500345 -0.15934042321226513 -0.13693585636574498 -0.14498303434110513 -0.09953101662825177 0.063700786767095
-0.05582590450412862 -0.0014783920781714678 0.08790542529246784 0.1271038937581592 0.04441082555196875 0.12233423512114515 0.16067333423219998 0.006515669435938868
0.17922597121655284 0.1673188517545205 -0.08904338983406213 0.12336519333936741 -0.10575086778242676 -0.016965627129307215 0.19603159009000154 -0.051318628649326514
0.023140363040814096 0.08423716331861521 -0.027481086403934697 0.08461328014870187 -0.031475293662018296 0.02181811002522843 -0.35579871365129384 -0.08912063085552445
-0.13690205609815856 0.04657138276355167 -0.16512775484765185 0.050167242640837995 -0.5030635488577151 -0.10205660150097065 -0.014484696011838633 0.04706522672519109
-0.12682666743345314 -0.06034573856723217 0.0008423951988073888 -0.04345907592254604 -0.06624194827407043 2.9658692740734915 -0.16118382301211076 0.03325059758074315
0.062449121288949 0.08992901259062658 -0.05284523062817338 0.02804037757358073 0.025015607301596923 0.07200704965370268 0.0660449644819538 -0.002044811497150706
0.03143019372951935 -0.01907346670852587 0.0014582306806013821 0.15168374219026995 -0.1493505601163569 -0.0022758008381334456 0.016006697231633442 -0.0669792052156265
-0.038081066004029274 -0.11061476838895788 0.10739888939985054 -0.1402333105807936 -0.021218694158792243 0.08743364927609767 -0.04456537340280773 -0.10564324314930638
00000000: ec4a b41e d3e7 a3bf b329 df8c 97c7 a0bf
00000010: 3dcc e9d1 827f af3f 3351 5059 4465 c4bf
00000020: e7cc 5e38 1d87 c1bf 6725 7cd7 cd8e c2bf
00000030: 1521 5b5d dd7a b9bf 87e6 e4db b14e b03f
00000040: d2cd 3a84 3695 acbf 1022 1768 d338 58bf
00000050: b2a9 c54e f880 b63f c759 71bd f044 c03f
00000060: d20a ab06 04bd a63f 3fc8 06e3 4b51 bf3f
00000070: f8eb ee9d f190 c43f 9ef3 38b2 2cb0 7a3f
00000080: f505 7c6a e0f0 c63f ae1c 2542 b46a c53f
00000090: 8024 432f 8ccb b6bf 0478 db7e dc94 bf3f
000000a0: 3c2e a626 7d12 bbbf b0bd b4f6 6f5f 91bf
000000b0: 06b0 352a 9017 c93f f8e7 726f 6f46 aabf
000000c0: 1755 e979 1bb2 973f f1ae 8f15 9190 b53f
000000d0: 2d2c 747d 0024 9cbf 12c4 0b47 37a9 b53f
000000e0: 511b d299 871d a0bf cf56 1394 7c57 963f
000000f0: d3d5 c5f7 67c5 d6bf b761 ec12 9cd0 b6bf
00000100: 0d2f d9ae 0186 c1bf 8143 cc4b 34d8 a73f
00000110: dcc4 5d01 e822 c5bf 681f f254 85af a93f
00000120: 2aea 44ba 1819 e0bf 6a9e c9a5 6120 babf
00000130: b089 4efd 26aa 8dbf d085 20f3 ee18 a83f
00000140: ab94 7132 db3b c0bf 05ce 32fb a2e5 aebf
00000150: 35bd 22ea 859a 4b3f 8e7a 9a9b 4440 a6bf
00000160: 74e0 7579 3bf5 b0bf f2da 82ab 19ba 0740
00000170: 309a 3de8 aba1 c4bf 250e 5dea 3806 a13f
00000180: b42f 33cb 54f9 af3f e8ce 0978 9605 b73f
00000190: b25c 98b2 870e abbf 8c86 95e2 9db6 9c3f
000001a0: a4ef fffc b09d 993f 0317 58d3 0d6f b23f
000001b0: 0cf6 83a2 52e8 b03f a745 37d0 47c0 60bf
000001c0: bbb7 594c 9e17 a03f 2b17 f0ae fe87 93bf
000001d0: 7042 5345 43e4 573f b163 0574 5f6a c33f
000001e0: 7e65 ab4d eb1d c3bf 7ff6 8045 b3a4 62bf
000001f0: 2ee2 8144 0f64 903f b8c6 e997 8c25 b1bf
00000200: 3012 2b8a 5c7f a3bf 8768 afdc 3f51 bcbf
00000210: 405d 995d 7e7e bb3f 898d 6045 2af3 c1bf
00000220: 5142 e775 5aba 95bf 42f5 3538 0d62 b63f
00000230: fd21 99ca 45d1 a6bf 2fa1 5e82 6f0b bbbf
